…
        "id": "ik0VsD-SMzd1",
        "outputId": "dc30a578-e62a-459f-9e9f-cb7c18cea66c"
      },
      "source": [
        "model.summary()"
      ],
      "execution_count": 33,
      "outputs": [
        {
          "output_type": "stream",
          "text": [
            "Model: \"sequential\"\n",
            "_________________________________________________________________\n",
            "Layer (type)                 Output Shape              Param #   \n",
            "=================================================================\n",
            "conv2d (Conv2D)              (None, 46, 46, 64)        640       \n",
            "_________________________________________________________________\n",
            "dense (Dense)                (None, 46, 46, 64)        4160      \n",
            "_________________________________________________________________\n",
            "dropout (Dropout)            (None, 46, 46, 64)        0         \n",
            "_________________________________________________________________\n",
            "dense_1 (Dense)              (None, 46, 46, 64)        4160      \n",
            "_________________________________________________________________\n",
            "dropout_1 (Dropout)          (None, 46, 46, 64)        0         \n",
            "_________________________________________________________________\n",
            "flatten (Flatten)            (None, 135424)            0         \n",
            "_________________________________________________________________\n",
            "dense_2 (Dense)              (None, 128)               17334400  \n",
            "_________________________________________________________________\n",
            "dense_3 (Dense)              (None, 7)                 903       \n",
            "=================================================================\n",
            "Total params: 17,344,263\n",
            "Trainable params: 17,344,263\n",
            "Non-trainable params: 0\n",
            "_________________________________________________________________\n"
          ],
          "name": "stdout"
        }
      ]
    },
    {
      "cell_type": "code",
…
        "id": "-B9Dw-UiP3SM",
        "outputId": "3c2be862-d281-4d7b-8f28-b3a28af551f4"
      },
      "source": [
        "model.summary()"
      ],
      "execution_count": 38,
      "outputs": [
        {
          "output_type": "stream",
          "text": [
            "Model: \"sequential_1\"\n",
            "_________________________________________________________________\n",
            "Layer (type)                 Output Shape              Param #   \n",
            "=================================================================\n",
            "conv2d_1 (Conv2D)            (None, 46, 46, 32)        320       \n",
            "_________________________________________________________________\n",
            "conv2d_2 (Conv2D)            (None, 44, 44, 64)        18496     \n",
            "_________________________________________________________________\n",
            "max_pooling2d (MaxPooling2D) (None, 22, 22, 64)        0         \n",
            "_________________________________________________________________\n",
            "dropout_2 (Dropout)          (None, 22, 22, 64)        0         \n",
            "_________________________________________________________________\n",
            "flatten_1 (Flatten)          (None, 30976)             0         \n",
            "_________________________________________________________________\n",
            "dense_4 (Dense)              (None, 128)               3965056   \n",
            "_________________________________________________________________\n",
            "dropout_3 (Dropout)          (None, 128)               0         \n",
            "_________________________________________________________________\n",
            "dense_5 (Dense)              (None, 7)                 903       \n",
            "=================================================================\n",
            "Total params: 3,984,775\n",
            "Trainable params: 3,984,775\n",
            "Non-trainable params: 0\n",
            "_________________________________________________________________\n"
          ],
          "name": "stdout"
        }
      ]
    },
    {
      "cell_type": "code",
…
        "id": "2rdkQa5AUDrA",
        "outputId": "c4ed2f9c-1ef7-4148-804e-bc82bef19341"
      },
      "source": [
        "model.summary()"
      ],
      "execution_count": 47,
      "outputs": [
        {
          "output_type": "stream",
          "text": [
            "Model: \"sequential_3\"\n",
            "_________________________________________________________________\n",
            "Layer (type)                 Output Shape              Param #   \n",
            "=================================================================\n",
            "conv2d_5 (Conv2D)            (None, 46, 46, 32)        320       \n",
            "_________________________________________________________________\n",
            "conv2d_6 (Conv2D)            (None, 44, 44, 32)        9248      \n",
            "_________________________________________________________________\n",
            "max_pooling2d_2 (MaxPooling2 (None, 22, 22, 32)        0         \n",
            "_________________________________________________________________\n",
            "dropout_6 (Dropout)          (None, 22, 22, 32)        0         \n",
            "_________________________________________________________________\n",
            "conv2d_7 (Conv2D)            (None, 20, 20, 64)        18496     \n",
            "_________________________________________________________________\n",
            "conv2d_8 (Conv2D)            (None, 18, 18, 64)        36928     \n",
            "_________________________________________________________________\n",
            "max_pooling2d_3 (MaxPooling2 (None, 9, 9, 64)          0         \n",
            "_________________________________________________________________\n",
            "dropout_7 (Dropout)          (None, 9, 9, 64)          0         \n",
            "_________________________________________________________________\n",
            "flatten_3 (Flatten)          (None, 5184)              0         \n",
            "_________________________________________________________________\n",
            "dense_8 (Dense)              (None, 128)               663680    \n",
            "_________________________________________________________________\n",
            "dropout_8 (Dropout)          (None, 128)               0         \n",
            "_________________________________________________________________\n",
            "dense_9 (Dense)              (None, 7)                 903       \n",
            "=================================================================\n",
            "Total params: 729,575\n",
            "Trainable params: 729,575\n",
            "Non-trainable params: 0\n",
            "_________________________________________________________________\n"
          ],
          "name": "stdout"
        }
      ]
    },
    {
      "cell_type": "code",
…
